assets/top-score-checkpoint.pth (torch_old, 84882 bytes, 18 tensors)

0.weight f4 [64, 37]
000000 30 2c c7 bc 1b 1b c3 bd db ba de 3d 9a e9 0e 3e
       -0.024313062 -0.09526654 0.108754836 0.139563
000010 29 ab a7 bd f1 16 17 bd 4d 6b a3 3e e2 7a b0 3d
       -0.08186943 -0.036887113 0.31917801 0.08617188
000020 42 53 30 3e 83 8f aa 3e 46 12 57 3d 2f 13 52 bd
       0.1721926 0.33312616 0.05250766 -0.051287826
000030 6d c7 83 bd bb a0 80 be f6 51 51 bf ed d6 5d bc
       -0.06434522 -0.25122628 -0.8176569 -0.013540012
000040 f5 4e 3f be e5 f5 9a 3d 6c 1e 08 be b3 ec 08 3c
       -0.18682463 0.07566432 -0.13292855 0.008357215
000050 14 10 9e 3c 60 57 f6 3e 49 64 15 3e 6d 68 6b be
       0.019294776 0.48113537 0.14589037 -0.22989054
000060 1b 80 cc be 0b 59 e2 3c a2 98 d4 bd ec 47 39 3d
       -0.39941487 0.02763035 -0.10380675 0.045234606
000070 27 09 3f bb 05 3d 06 be 4f c3 1b 3e af d5 58 3e
       -0.0029149742 -0.13109215 0.15211223 0.21175264
000080 5e 36 3a 3d 7e d6 91 3e f8 25 43 bd 01 e9 b3 3d
       0.045462005 0.28483957 -0.04764363 0.08784676
000090 ac 88 b1 bd 7d 95 27 3e d8 a1 45 3e e3 d2 49 3e
       -0.08668646 0.16365619 0.1930002 0.19709353
0000a0 ee 43 46 3e 9d 7d a6 bc 60 34 2f 3e 83 15 4a 3d
       0.1936185 -0.020323569 0.17109823 0.04933692
0000b0 89 1d c3 3d 7c 00 61 3e d6 a7 4a 3e 6b 31 4b 3d
       0.09527118 0.21972841 0.19790587 0.049607676
0000c0 dc dd 1d 3e 35 6b aa 3d 9e 51 b4 3d 30 33 ae bd
       0.15416664 0.08321229 0.0880463 -0.08505857
0000d0 ed d1 f4 3d ec c6 93 3d f7 54 31 3e 90 1b 98 3e
       0.11954103 0.07215676 0.17317568 0.2970853
0000e0 09 ff 6d 3d 36 5e 04 3f f6 12 3b bd 45 78 90 bc
       0.05810455 0.51706254 -0.04567238 -0.017635474
0000f0 f8 1e 1a bd 0a 52 88 bf da 50 4b 3d 15 e1 81 3d
       -0.03762719 -1.0650036 0.049637653 0.06341759
000100 6a 54 f1 3d 5b 3c 42 3e cb 16 72 3d 2f 0f 7e 3e
       0.11783679 0.18968336 0.05910377 0.2481048
000110 0b 28 32 3e 48 7a cf 3d 8b c4 f7 3d 2c d0 af bd
       0.17398088 0.10130745 0.120980345 -0.085846275
000120 97 26 ae 3d 03 06 0b bd 5c f1 06 3e bd c9 e3 3d
       0.08503454 -0.03394128 0.13178009 0.11122463
000130 54 1e 02 3d 3d 8b e2 3d 83 ee 41 be a6 af a4 bf
       0.031767204 0.11061714 -0.18938641 -1.2866104
000140 d5 50 65 3d 44 b8 a7 3e 4f 19 3f be 52 de 33 c0
       0.05598529 0.3275777 -0.18661998 -2.8104444
000150 3e 5a ed 3d 7b d2 ae bd 40 d3 fe 3c 5e 2d 22 3e
       0.11589478 -0.0853624 0.031106591 0.15837619
000160 f1 d8 d3 3d 5f 22 d9 3d 3c 09 1f 3d 95 6d 1d 3d
       0.10344113 0.10602259 0.038827166 0.038434584
000170 f7 d2 47 bc 1c 88 17 3e fd 87 80 bc a9 4b 0b 3e
       -0.012196294 0.14798015 -0.015689844 0.13603081
000180 ee ff 1b 3e 78 bf ae 3d ca 18 0f 3e ba 60 24 be
       0.15234348 0.085326135 0.139743 -0.16052523
000190 9c fc ac 3d 24 ca 38 3e 7d 84 0d 3e f6 c9 c2 bd
       0.08446619 0.1804586 0.13820072 -0.09511177
0001a0 06 e0 75 bd 42 ac 21 3e 8e 7e 33 3e 2c 2a 6f 3d
       -0.0600281 0.15788367 0.17528746 0.058389828
0001b0 26 9d d5 bd 60 87 80 3c b5 2e 09 ba 17 b7 f3 3e
       -0.10430364 0.015689552 -0.0005233095 0.47600624
0001c0 b0 ce fe be 62 d4 d9 be 7a 69 aa be cc bd ae bf
       -0.49767065 -0.42544848 -0.33283597 -1.3651671
0001d0 76 48 1a 3d 5d 52 4b bb fe ad 4b 3d c6 dc ae 3d
       0.03766676 -0.0031024434 0.04972648 0.08538203
0001e0 ef 0b bf 3e b3 4d 3f be 77 75 1d be b3 a7 45 3d
       0.37313792 -0.18681984 -0.1537684 0.048255634
0001f0 c1 d0 c1 bd ce 86 8e 3c b3 b9 5a be 38 94 5c 3e
       -0.09463645 0.017398264 -0.21359901 0.21540916
000200 45 b7 e0 bc ed 3e 3e 3d 4f 7e 86 3e c8 a5 be bb
       -0.02743114 0.04644673 0.2626824 -0.0058181025
000210 2b 94 44 3d f5 fb 79 3b 6a c2 4a 3e 1d 1a e8 bd
       0.047992866 0.0038144563 0.19800726 -0.11333106
000220 fa 02 14 bd 11 90 72 be 28 78 88 be b8 92 15 3e
       -0.03613565 -0.2368777 -0.26654172 0.1460675
000230 8e db 5a 3e 3a e7 07 3e 1d 0a 93 3c f9 1f 59 bd
       0.21372816 0.132718 0.017949158 -0.053009007
000240 19 c7 72 3e ed df 14 3d 71 da 64 3c 17 53 22 bc
       0.23708762 0.036346365 0.013968096 -0.0099075055
000250 77 4a 30 3e d6 7b 1f be 37 01 72 bd ef ff 73 be
       0.17215906 -0.15574583 -0.05908319 -0.238281
000260 38 29 68 be e8 04 85 be 9b 09 65 3e b2 43 a8 3d
       -0.22671974 -0.25980306 0.22366945 0.08216037
000270 99 13 83 3e 59 08 e0 3d 43 e4 90 3c f7 48 bc bc
       0.2560089 0.10939092 0.017686969 -0.022984011
000280 89 d6 ed bd 62 14 27 3e 52 a8 5f 3e 87 4d c3 3e
       -0.11613185 0.16316369 0.21841553 0.38145086
000290 78 ab 79 be 0f ce ea be 42 f0 40 bf a3 4d a0 bf
       -0.24381816 -0.45860335 -0.75366604 -1.2523693
0002a0 42 63 20 3d ca 55 0a be 79 6d 89 bd 95 4d 1a bd
       0.03915716 -0.13509288 -0.067103334 -0.037671644
0002b0 b3 9d 01 3d 06 f7 34 bd c0 12 be 3c f0 ac 21 3e
       0.031644534 -0.044180892 0.0232023 0.15788627
0002c0 cc 27 fc 3d e6 98 f3 3e 9b 8e 65 be ec f8 31 bd
       0.12312278 0.4757759 -0.22417681 -0.04345028
0002d0 cd 26 d8 3c 71 58 0b 3e 79 e3 ff 3d d4 41 40 be
       0.02638569 0.13607956 0.12494559 -0.18775111
0002e0 f2 3e 58 3d 3c f0 27 bd c9 60 b0 3d 8b cf e5 bc
       0.052794404 -0.04100059 0.0861221 -0.028053066
0002f0 7b 72 c0 3d f5 8b 54 3c 0c 2a 80 bd c0 3f f2 3b
       0.093968354 0.0129728215 -0.0625802 0.0073928535
000300 80 0f 1e bd d6 cc 79 3e e9 43 23 3e ce 97 cf 3d
       -0.038589 0.24394545 0.15943874 0.10136376
000310 d5 1a a9 3d 08 19 99 3c 0e 42 50 3e 88 4b 05 bd
       0.08257071 0.018688694 0.20337698 -0.032542735
000320 b8 dd 73 be 9c a3 82 3d 94 82 8c 3d 31 9a 3c 3e
       -0.23815048 0.06378862 0.06860843 0.18418194
000330 21 3b 45 3e d9 00 04 bc d4 2b 65 bd ea fc 57 3c
       0.19260837 -0.008056843 -0.05595 0.013182858
000340 99 4b 6f ba 7e 7f 26 bc 74 ec f6 bd 87 31 fe 3d
       -0.00091283914 -0.010162232 -0.120568186 0.1241179
000350 81 dc e2 bc 63 18 8a 3e 75 b8 09 3e 7d ad 0d 3d
       -0.027693035 0.2697173 0.13449271 0.03458928
000360 80 36 a4 bd 8e 96 1b 3d ea 45 60 3e 9d 3f 2b bd
       -0.080182076 0.037985377 0.2190167 -0.041808713
000370 e5 67 67 bc f0 16 6a bd 34 fb 2b bd fb 68 63 3e
       -0.0141238915 -0.05715078 -0.041987613 0.22208016
000380 8a f9 b6 bc 7e c1 31 bb b2 0a ae 3d e6 4d 1f bf
       -0.022335786 -0.0027123387 0.08498134 -0.6222824
000390 08 2f 05 be 86 c5 a0 3e 15 1e 89 3e 99 bf 00 3e
       -0.13006222 0.31400698 0.26780763 0.12573089
0003a0 18 9e 51 3c b5 9f 9c 3e 74 e1 8f bd cc 4d 4a be
       0.01279404 0.30590597 -0.07025424 -0.1975624
0003b0 97 79 6c be e1 68 6e be 28 a1 4d be fa c3 dd bd
       -0.23093258 -0.23282196 -0.20081007 -0.10828395
0003c0 45 4b 09 3e 08 09 06 3e 0f 7c 87 bc 4e 20 2b be
       0.1340762 0.13089383 -0.016538648 -0.16711542
0003d0 c4 dc 0c bc 6d 7f 5b 3e a9 de a3 3e d8 be 5b be
       -0.0085975565 0.21435328 0.32005814 -0.2145952
0003e0 08 ad 94 be 6b 57 b4 be 79 d8 d8 3e 3f 5b 39 3e
       -0.29038262 -0.35222945 0.42352656 0.18101214
0003f0 26 7a 5a be 1c 26 a0 be 20 89 10 be c0 2f 2a 3e
       -0.21335658 -0.31279075 -0.14114809 0.16619778

0.bias f4 [64]
000000 dc cf 76 3d 93 3f 35 3e 11 2a 30 be 76 92 60 bd
       0.060256824 0.17700033 -0.17203547 -0.054827176
000010 64 95 92 be 96 74 b9 3c 33 b9 a1 be 1f 30 29 3d
       -0.286296 0.0226386 -0.31586608 0.041305657
000020 d4 db 99 be 95 a4 05 3d 8c 74 21 3e 92 54 ba be
       -0.30050528 0.03262766 0.15767115 -0.36392647
000030 b4 6c 22 be 5f ec 82 3e 0e f5 7c bd 81 08 a8 3d
       -0.1586178 0.25570962 -0.06175714 0.08204747
000040 38 0d 84 be 97 40 14 be b2 af 7d be d1 bc 8a be
       -0.25791335 -0.14477764 -0.24774054 -0.2709718
000050 e8 4b 44 be 0b 34 a1 3e be f4 92 3d b5 f5 7d bd
       -0.19169581 0.31485018 0.07175587 -0.062001903
000060 ab 4e d2 bc 38 2a 87 be b8 bb 1e 3e 2f 13 73 bd
       -0.025672277 -0.26399398 0.15501297 -0.059344467
000070 d7 69 91 be dd 60 c1 3c a0 0b 4d 3e 36 f2 f6 3d
       -0.28401062 0.023605758 0.20023966 0.12057917
000080 36 70 8f 3d cb ee 06 be 8f 35 74 be 2e 89 59 be
       0.070038244 -0.1317703 -0.23848556 -0.21243736
000090 17 46 0f be d2 39 27 3e 00 06 a9 bd 44 52 84 be
       -0.13991581 0.1633065 -0.082530975 -0.25844014
0000a0 eb 6c 09 bd 8b 3d 9f 3c 61 3b 4b 3d 47 7c 63 bc
       -0.033551138 0.019438526 0.049617175 -0.0138846105
0000b0 af 5b 5b 3d 61 51 97 be df e7 8d 3e 77 99 ba 3d
       0.053554233 -0.29554275 0.27715966 0.09111302
0000c0 1a ad cc bc 93 e4 a3 3d db 3a 13 bd 5b 08 a0 bd
       -0.024984885 0.080025814 -0.0359448 -0.07814094
0000d0 f7 f5 45 3e b5 70 78 bd 93 01 fb bd ab 02 99 bd
       0.1933211 -0.06065436 -0.1225616 -0.07471212
0000e0 e1 34 ed bd f4 8a 98 be 48 91 29 bd ad 03 4c 3e
       -0.115823515 -0.29793513 -0.041398317 0.19923277
0000f0 c8 f2 a6 3e 38 10 cf bd 23 95 65 3d 40 46 72 be
       0.32607102 -0.10110515 0.05605043 -0.23659611

2.weight f4 [64, 64]
000000 90 e7 02 be 01 a3 59 3d d7 ff 16 3c 9a d5 9f 3c
       -0.12783647 0.05313397 0.00921627 0.019511033
000010 45 12 91 bd 70 b3 db 3b cd 8f 1b be ee e7 c2 bd
       -0.07083563 0.00670474 -0.15191574 -0.09516893
000020 a4 bc 06 be 6f d9 f5 bd 65 59 84 3c 70 a1 9e bd
       -0.13157898 -0.12004363 0.016155908 -0.077456355
000030 51 b7 8b bd 3a 87 f1 bc d7 b9 36 3d 6c 24 3b bb
       -0.06822074 -0.029483426 0.044610824 -0.0028555645
000040 79 1f cb bb 70 3f 25 3d 09 49 47 bd 17 0b 55 bd
       -0.00619882 0.0403437 -0.048653636 -0.05201253
000050 2a 2e e4 3b f5 0c 0a be 86 b2 06 bc fc 2b a8 bd
       0.006963511 -0.13481505 -0.008221274 -0.08211514
000060 f7 23 6d bd ed 14 67 bd 9a 6c 00 bd 41 3e 73 3d
       -0.057895627 -0.05641644 -0.03135357 0.05938554
000070 ab 14 ab bd be 4d 0b 3d 76 70 10 3d be 06 30 be
       -0.083535515 0.034009688 0.0352635 -0.17190072
000080 e9 7c 17 3b c7 24 02 be 00 bf 24 3d 89 e9 ff bd
       0.0023115224 -0.12709342 0.040221214 -0.12495715
000090 89 30 63 3d ee 22 11 be db b4 ec bd a9 8d 05 be
       0.05546621 -0.14173481 -0.11557933 -0.1304232
0000a0 74 33 84 bc 93 8b 6a bc 9a 85 d0 bd 30 be 02 bd
       -0.016137816 -0.014315504 -0.101817325 -0.03191966
0000b0 67 cb d0 3b 7a ce 46 be e0 1d 25 be aa b6 4b bd
       0.0063719037 -0.19414702 -0.16124678 -0.04973475
0000c0 b4 23 f6 bd 4b 00 ee bd 67 43 57 bc 78 46 87 bd
       -0.120185286 -0.1162115 -0.013138629 -0.06605238
0000d0 f4 df 10 bd 2c d4 ff 3a c0 a6 93 bd f7 ad f6 bb
       -0.03536983 0.0019518188 -0.072095394 -0.0075280624
0000e0 60 43 3b 3d 65 83 37 bd 19 6e 6d bd bc 3d 97 bd
       0.04571855 -0.044803042 -0.057966325 -0.07384822
0000f0 2b 67 9a bc ea bf f7 bd 14 79 63 3c e1 7f 95 bc
       -0.018848022 -0.120971516 0.013883848 -0.018249454
000100 28 83 19 3d ce ba 00 bd 0a a5 f9 bd 10 73 9e bd
       0.037478596 -0.03142815 -0.12189682 -0.0773679
000110 fb a4 8f bd ae d5 b0 bc 1e 05 c7 bd 9d 24 e6 3c
       -0.070138894 -0.021586265 -0.09717773 0.02809363
000120 4a 25 d7 bc 6c ee a5 b8 19 27 46 bc 66 4c 77 bd
       -0.026262898 -7.912223e-05 -0.012094283 -0.060375594
000130 0e 7b 83 3d 58 39 87 bd 23 62 43 3d 21 76 4c bd
       0.06419955 -0.06602734 0.047701012 -0.049917344
000140 08 8c a6 3d bb 5d d2 bd 4e 96 00 be 81 60 2c bd
       0.081321776 -0.10271784 -0.12557337 -0.04208422
000150 fd 75 0d be a6 32 8c bd 6c 72 b1 bd 04 dd 2f bd
       -0.1381454 -0.06845598 -0.08664402 -0.042935386
000160 3c b3 0d ba 33 8a b8 3b 44 67 d2 bd 53 f8 2b bd
       -0.0005405431 0.005631709 -0.102736026 -0.041984867
000170 82 ab 0c bd c7 0d cc 3d c6 6d 03 3c 72 6f ea 3c
       -0.03434325 0.09963565 0.0080217775 0.028617594
000180 a9 a7 f5 bd e3 57 2b 3d 60 06 fa 3b 54 60 53 3d
       -0.11994869 0.041831862 0.0076301545 0.051605538
000190 8e 3e a2 bd 41 e2 0a be 62 1a 9d bd c3 e7 a2 3d
       -0.079220876 -0.13562872 -0.07671048 0.07954361
0001a0 4b 49 92 bd 57 f1 e3 bc 00 19 2f bd 3b 9e 04 be
       -0.07142886 -0.02782504 -0.04274845 -0.12950985
0001b0 cd 35 f4 bd 2e 11 c7 bd b6 05 77 3c 9f 8e ee 3c
       -0.11924324 -0.09720074 0.015077045 0.029120741
0001c0 58 da 93 3c 84 51 00 3d 95 5c 25 bd ed 6f 05 be
       0.01804845 0.03132774 -0.040371496 -0.13030978
0001d0 d2 ad 1b be 43 06 34 3d 48 34 88 bc a1 20 45 be
       -0.15203026 0.043951284 -0.016626492 -0.19250728
0001e0 2d 46 97 bd f0 db 06 bb 87 96 c8 3c 60 dc ef bd
       -0.07386432 -0.002057787 0.02448584 -0.11711955
0001f0 24 a5 0d 3d b0 31 0a be cd aa f1 bd 72 46 64 3d
       0.03458132 -0.13495517 -0.11800156 0.055731244
000200 d4 84 3d be 14 ad b1 bc 40 0f 3d 3d 6a 90 84 3d
       -0.18507701 -0.021688975 0.04615712 0.06472857
000210 e0 85 35 bc 8d 87 32 3c 55 6a b8 bd ab 35 a3 3c
       -0.011079282 0.010896576 -0.09004656 0.019923052
000220 fb 1d 81 bd 93 7d 47 bd c8 48 bd bd ef f2 c1 bd
       -0.063045464 -0.04870374 -0.092423975 -0.09470164
000230 2e bd 2b be 5b 85 2d bc 27 e4 39 bd 54 a1 0e be
       -0.16771385 -0.010590876 -0.0453836 -0.1392873
000240 ef bc 96 bd 8c 5a aa bc 0a f4 50 bd 44 07 f2 bd
       -0.07360255 -0.02079513 -0.051013984 -0.11817792
000250 79 b2 68 bc a4 d3 74 bd bf 5b 5e bc 36 9b 00 be
       -0.014202707 -0.05977215 -0.013571679 -0.12559208
000260 04 21 36 be c1 b1 7b 3c 1a 03 92 3d 7e 85 c0 bd
       -0.17786032 0.015362204 0.07129498 -0.094004616
000270 f2 3a 50 be 11 5f af bc d5 66 01 3d f4 69 7e bc
       -0.20334986 -0.021407636 0.03159221 -0.015528191
000280 44 47 80 3d 9d c3 11 bd 5a b7 0f 3d 1f 6a cb 3c
       0.06263593 -0.035586942 0.035086967 0.024830876
000290 30 c7 d0 bd 0f 25 0d be 31 b5 87 3d 1f ae bb 3b
       -0.10194242 -0.13783668 0.066263564 0.005727544
0002a0 e9 b6 c9 bb f9 9f a4 bd af cd 38 3c 45 2e e0 bd
       -0.006155838 -0.08038325 0.011279508 -0.10946325
0002b0 58 c9 08 be a5 fe 2a bd 08 60 06 be 2c 83 1f be
       -0.13358057 -0.041746754 -0.1312257 -0.15577382
0002c0 85 4b b9 bb a5 26 1d bc 9d 1e 6b 3d 9e 75 93 bc
       -0.0056547546 -0.009591733 0.057402242 -0.01800042
0002d0 ee 69 03 be db 3c d8 bd 89 1b b0 3d c1 66 14 bd
       -0.12833378 -0.10558482 0.08599002 -0.036230806
0002e0 68 a1 24 be e0 14 f4 bd c1 81 2a be b1 da 17 be
       -0.16077197 -0.11918044 -0.1665106 -0.14829518
0002f0 13 51 00 bd 02 35 63 bc c5 9b fb bd 46 ff d2 b9
       -0.03132732 -0.0138676185 -0.1228557 -0.00040244515
000300 2c 63 d5 3d 32 ac 80 bd 31 39 2e bb 13 9b 49 be
       0.10419306 -0.06282844 -0.0026584382 -0.19688062
000310 f2 aa 9f bd aa d8 cb bd 03 f9 fd 3c 1d 37 f4 bd
       -0.07796277 -0.09953435 0.031002527 -0.119245745
000320 8a bf 43 bd ef 7c dd be 08 cc 47 bc 0e a4 cc bd
       -0.047790088 -0.4325938 -0.012194641 -0.099922284
000330 71 2b a3 bc e8 ce d7 bc 78 87 ec 3d f9 dc dc 3c
       -0.019918175 -0.026343778 0.11549276 0.026960837
000340 76 9e c8 bc 91 85 55 be 9d 45 7c bc c8 6c 42 bd
       -0.024489623 -0.20851733 -0.0153974565 -0.047467023
000350 42 3a 0c 3d 4e c8 2e bd ba 0e 8e 3d c6 fb 56 3e
       0.034235246 -0.042671494 0.069364026 0.20994481
000360 f4 31 65 bd 8a f7 d3 3d 37 1e 54 bc 72 6e 1b bd
       -0.055955842 0.10349949 -0.012946657 -0.037947126
000370 b9 0d 95 bd a0 e1 3c be f4 7e b2 bd 84 3a 98 bd
       -0.07278008 -0.18445444 -0.08715621 -0.07433036
000380 f2 1d 76 3d 5a 79 df 3c f3 ca eb 3d 5a 53 d1 bd
       0.06008715 0.027279545 0.11513319 -0.10220976
000390 a1 d3 36 be fc 20 c9 bd d5 66 c6 3d 7c 88 65 bd
       -0.17854168 -0.098207444 0.096875824 -0.056038365
0003a0 e9 e2 d1 bd bf f5 a3 3d 95 63 21 3d 5e 36 8b 3c
       -0.10248358 0.08005857 0.03940161 0.016993698
0003b0 38 bb 8c be e9 65 ed 3d 20 b0 2f bf fe c0 ad bd
       -0.27486587 0.115917034 -0.6862812 -0.08484076
0003c0 10 ea 0e be bf ac ea bb 12 48 8e 3a b7 e1 14 3c
       -0.13956475 -0.007161706 0.0010855219 0.009087018
0003d0 86 f4 f8 3d ee 79 95 3d 50 82 78 3d 74 17 37 be
       0.12156014 0.07298647 0.06067115 -0.1788004
0003e0 0b 9a 00 be c8 92 36 3a e7 d5 84 bd 34 1b fa 3d
       -0.12558763 0.0006964621 -0.06486111 0.1221222
0003f0 98 3f 4e 3d 67 74 8d bc 74 ac 82 bc 15 0a 9b bd
       0.050353616 -0.017267419 -0.015951373 -0.07570282

2.bias f4 [64]
000000 62 e4 6d bd 8d 33 a1 bd 5a 26 95 bd ca b6 18 3e
       -0.05807913 -0.07871161 -0.072827056 0.14913478
000010 65 d7 e0 bc 55 2a 9b bc 01 a9 8a 3d 30 a1 96 3e
       -0.027446458 -0.018941084 0.06770516 0.2941985
000020 96 63 b1 bd e0 12 0a be 1c 29 c7 3e b3 a6 63 bd
       -0.08661573 -0.13483763 0.3889855 -0.0555789
000030 fe dd bd bc bb f5 af 3e 65 57 27 be a5 12 f3 bc
       -0.023177143 0.34367165 -0.16341932 -0.029671976
000040 82 48 17 3e b7 1e 2e be 3d 89 7a bd f0 df 08 3c
       0.14773753 -0.17003904 -0.061166037 0.008354172
000050 2d 8e b2 3d a0 aa d5 bc cd 45 a3 bd cc f4 3d be
       0.08718524 -0.026082337 -0.07972298 -0.18550414
000060 b7 83 05 be a6 1c f1 3e ab 98 f9 3d 21 3b 0e bd
       -0.13038526 0.4709217 0.12187322 -0.03472436
000070 e6 c6 62 3e 5c 79 f2 bb 78 0f fc 3e 13 cd 4c 3e
       0.22146186 -0.007399721 0.49230552 0.20000105
000080 69 21 4b be 66 de 57 3e e9 35 18 be 97 56 e7 3b
       -0.19836964 0.21080932 -0.14864315 0.007059883
000090 59 9a e6 3e c5 33 85 be c7 93 a3 3c cd 56 81 be
       0.45039633 -0.2601606 0.019967927 -0.25261536
0000a0 38 0c 1a be 8b fc ce 3e c8 09 9b 3e 12 8c 00 be
       -0.15043724 0.4042705 0.302809 -0.12553433
0000b0 61 8d 9e be 8c 46 c3 bd 56 80 2a be 19 57 6e bc
       -0.3096724 -0.0953494 -0.16650519 -0.014547133
0000c0 10 ed fd 3c 8b 86 66 3e 3d e5 76 bd 57 26 6d bd
       0.03099683 0.22512262 -0.060277212 -0.05789789
0000d0 4f b0 06 be 40 99 84 3e 10 bd d1 bd 77 80 a3 bd
       -0.13153194 0.2589817 -0.10241139 -0.07983487
0000e0 21 c6 37 bd a5 6f e8 3e c4 0b 86 3e 98 f8 08 be
       -0.044866685 0.45397678 0.2618085 -0.13376081
0000f0 e9 cb 13 be 31 d5 23 bd 7f a9 27 be 8d 44 93 3d
       -0.14433254 -0.039998237 -0.16373251 0.071908094

4.weight f4 [4, 64]
000000 57 db d6 bc 31 5d 88 3e cd d5 cf bb 58 71 0e 3e
       -0.026227636 0.266336 -0.0063426257 0.13910425
000010 6d 6e 56 3d 4d 3d 93 3e 68 d4 32 3e b5 74 60 3e
       0.052351404 0.28757706 0.17463839 0.2191952
000020 a1 d2 27 3d fd 90 3f 3c f1 b0 74 3d de c8 55 3d
       0.040972356 0.011692283 0.059739057 0.052193515
000030 32 68 a4 ba ac 8a 0a 3e 0c 04 16 3c b8 fc 1f 3b
       -0.001254326 0.13529462 0.009156238 0.0024412107
000040 4e 47 88 3e 47 42 d6 3d 3c f7 c8 3d 83 a1 0d 3d
       0.266169 0.1046186 0.09812781 0.034577858
000050 22 bb 25 3e 52 2f 1a bd 07 12 a7 3d 2f d4 7f bd
       0.16184667 -0.037642784 0.08157735 -0.062458213
000060 c9 f2 cf bc 42 56 46 3e 2d 27 13 3e 4d ec 1a 3e
       -0.025384324 0.19368842 0.14370413 0.15129204
000070 0e 75 25 3e 85 0c ad 3d 0e c0 e3 3d a7 8e a2 3e
       0.16157934 0.084496535 0.11120616 0.3174946
000080 24 8b bc b9 03 d0 69 3e 88 1d bb bb 52 13 b9 3d
       -0.00035961822 0.22833256 -0.0057103075 0.09036888
000090 5c fc 66 3e ee a2 91 be c0 a2 19 3e f8 98 88 be
       0.22557205 -0.28444618 0.1500349 -0.26679206
0000a0 59 5d 43 bd d0 64 4a 3e 3e 6b 53 3e d8 79 82 3d
       -0.047696445 0.1976502 0.20646378 0.06370896
0000b0 ec b0 8a bd 29 3e 48 3e 16 9b e6 bc 36 6b 35 3b
       -0.067720264 0.19554962 -0.028150123 0.002768231
0000c0 94 d5 37 3d 99 b8 df 3d d3 35 60 bd 25 90 b4 3a
       0.04488142 0.10923881 -0.05473883 0.0013775869
0000d0 21 71 8e bb d8 3c 19 3b 10 89 e7 3d dc 85 58 bd
       -0.004346982 0.0023382213 0.113054395 -0.052862033
0000e0 8a 8f 20 3e f7 05 a6 3c 0f 1d 20 3e 0c b1 e2 3c
       0.15679756 0.020266516 0.15636085 0.027672313
0000f0 b2 52 16 3e 76 dc 58 3c a3 c1 0b bd 23 a0 bf 3e
       0.14679983 0.013236156 -0.034120213 0.37426862
000100 0f 2c 29 3e b8 04 ac 3c 5f 05 a4 3d 07 5b 27 3e
       0.16520713 0.020998344 0.08008837 0.16343318
000110 b5 d1 3a 3d 8a eb 7e 3e 61 dd 28 3e 5b d8 62 3e
       0.04561015 0.24894539 0.164907 0.22152846
000120 c6 e9 95 bd 98 f6 01 3d 81 60 f3 3d 34 15 44 3b
       -0.07319979 0.03172931 0.11883641 0.0029919865
000130 3c 35 ed 3d 0a af 15 3e 76 38 81 3d 4e 53 24 bd
       0.11582419 0.14617553 0.06309597 -0.040118508
000140 df bf 7e 3e 73 3b 07 3d c3 ae 8a 3d ca ff 00 bd
       0.2487788 0.03301568 0.067716144 -0.03149394
000150 cf f1 27 3e 27 ea 11 3e df de 6e 3c 8c fe 5e 3c
       0.16400836 0.14249478 0.014579504 0.013610493
000160 e0 2c 09 3e 1d 22 8d 3d a2 ef 15 3e b3 15 0d 3e
       0.13396025 0.06891272 0.14642194 0.13777809
000170 ad 9f 46 3e 72 10 3a 3e 3f 6b 39 3e 9b 02 bd 3e
       0.19396849 0.18170336 0.18107317 0.3691605
000180 44 95 27 3e 91 65 58 3e e4 e9 ba bd 51 42 fe 3d
       0.16365534 0.21132495 -0.09126642 0.124149926
000190 fc ff 30 3e d1 8d 74 bd d0 d0 39 3e 0e fd 6f 3d
       0.1728515 -0.05970556 0.18146062 0.05859094
0001a0 76 92 de bd ee 25 86 3e 2f 99 58 3e 69 93 a0 bd
       -0.10867779 0.26200813 0.21152185 -0.07840616
0001b0 3c f4 17 bd ba 7e 87 3c 50 47 57 3d d5 ff 89 bd
       -0.037098154 0.01653992 0.052558243 -0.06738249
0001c0 f4 e7 46 3d 66 ea 03 3e fe a4 34 3e 1b 84 4c 3e
       0.04856105 0.12882385 0.17641065 0.19972269
0001d0 8e 71 16 3c fa b1 06 3e 8f b4 e8 3c 72 15 af 3d
       0.009182347 0.1315383 0.02840641 0.08549012
0001e0 2b d9 ea 3c 2a e6 2f 3d 72 01 2a 3e b4 85 a8 bc
       0.028668007 0.04294411 0.16602114 -0.020571567
0001f0 5a 3f 37 3e be 42 8f 3e 56 4b f5 bd 51 22 93 3e
       0.1789526 0.27980608 -0.1197726 0.2873712
000200 64 f6 0b 3d cd 9a 03 3d 9c 5d d5 3d 59 9d 20 3e
       0.034170523 0.03213005 0.10418245 0.15685023
000210 94 7e 11 3e f7 55 03 3e 8a a1 96 3d 8a 20 81 3e
       0.14208442 0.12825762 0.0735503 0.25220138
000220 fd 7c 16 bd 93 94 07 3e 70 04 07 3e 26 95 ba ba
       -0.036740292 0.1324027 0.13185287 -0.0014235124
000230 59 ba ed 3d 93 e7 97 3e 66 c6 01 3e 37 eb 8a bd
       0.116078086 0.29668865 0.12673339 -0.06783145
000240 65 c5 9f 3d d1 4d 7f 3d 9e e8 d4 3d a8 57 4b 3c
       0.07801322 0.06233007 0.10395931 0.012411036
000250 25 81 b9 3d 02 5e e1 bc a0 3d 20 3e d8 21 57 3e
       0.090578355 -0.027510647 0.15648508 0.21009004
000260 3b 9a 45 bd 27 d7 34 3e 8c bd 68 3e 90 a9 0e bb
       -0.04824279 0.17660199 0.22728556 -0.0021768548
000270 28 29 b0 3d 51 67 93 3e 3f f5 b5 3d cf 18 d3 3e
       0.086016 0.28789762 0.088846676 0.41229865
000280 0e b4 72 3d d1 62 4b 3e f5 5f 40 3d b7 75 63 bb
       0.059253745 0.19861914 0.04696651 -0.0034707615
000290 bb 8a 72 3b a4 3a 03 bf 2f b1 92 3d fa a8 c9 3c
       0.003700896 -0.51261353 0.07162701 0.024616707
0002a0 b2 6c d9 bd 67 00 3d 3e c7 11 12 3e 1b f9 27 3a
       -0.10616435 0.18457185 0.14264594 0.0006407664
0002b0 58 6b 14 bd 6d dd fd 3d 5c 25 95 bb 7b a0 1b 3e
       -0.036235183 0.12395749 -0.0045515727 0.15197937
0002c0 31 f0 0c 3e fe 11 56 3e 97 f4 ea 3b 3d 5c 4b 3e
       0.13763501 0.20905301 0.0071702707 0.19859405
0002d0 4e c9 9b 3d be d3 0a 3e a0 b3 9d 3c fb f9 1f 3c
       0.07606755 0.13557336 0.019250691 0.00976419
0002e0 23 55 2c 3e 87 bb c5 3d 11 fe 2f 3e e1 4f 20 bc
       0.16829352 0.096549086 0.17186762 -0.00978467
0002f0 ad c2 1f 3e ca 52 26 bd 46 c4 b3 3d 83 12 16 3e
       0.15601607 -0.040606298 0.087776706 0.14655499
000300 1c 32 f6 3d 47 4a 95 bc d8 91 e6 3d 9f 47 1c 3d
       0.12021276 -0.018223895 0.11258286 0.03815424
000310 d1 9c b0 3c c9 de c9 3d 96 a9 48 3e af 2f 87 3e
       0.02155915 0.09856946 0.19595942 0.26403567
000320 1a 42 1d 3d f8 e1 10 3e 78 52 6c 3d ef 26 ca bc
       0.038393117 0.141487 0.057695836 -0.024676768
000330 c5 a3 5d bd d5 95 4e 3e b5 21 05 3e 33 a4 4a bd
       -0.05411126 0.20174344 0.1300114 -0.049473
000340 02 ed 11 3e 5a c3 dd bb 02 05 54 3d 26 87 80 3d
       0.14250568 -0.0067676725 0.05176259 0.062757775
000350 de 2b ad 3d 6e d9 29 bc cf ec a5 bc 3d 26 cf 3c
       0.084556326 -0.010366781 -0.02025452 0.025286788
000360 b9 c7 a2 3e 2d 08 3e 3d 79 38 55 3e 20 d0 13 3e
       0.31793 0.046394516 0.20822324 0.14434862
000370 85 ae 0c 3e 2b 19 26 3e 7b 99 3a 3e 8a 0d f7 3d
       0.13738449 0.16220538 0.1822261 0.12063129
000380 b6 52 a0 3c 32 09 47 3e 6e 6b c8 3c 36 31 40 3e
       0.01957069 0.19437101 0.024465289 0.18768772
000390 ce a4 de 3d d9 68 3c bf 0d 7b 15 3e f5 aa bf bc
       0.10871278 -0.73597485 0.14597721 -0.023396948
0003a0 ac 18 be 3d a2 a2 91 3e 26 a7 59 3d 9f c2 8a 3d
       0.092820495 0.2844439 0.05313792 0.06775402
0003b0 0a 01 a5 bd a4 b6 52 3e 07 b0 aa bc 61 a6 05 3d
       -0.08056839 0.20577484 -0.02083589 0.032629374
0003c0 b6 18 d3 3c 7c 14 25 3e c0 d5 82 bd 02 f6 0e 3d
       0.025768619 0.16121095 -0.06388426 0.03490258
0003d0 b0 a1 30 bd 76 d7 a1 3d 21 40 24 bd da 63 ee 3d
       -0.043122947 0.07902424 -0.04010022 0.11640139
0003e0 58 9a c3 3c 9c ce 33 3e 8d c5 24 3e 4d 18 b9 ba
       0.023877308 0.17559284 0.16090985 -0.0014121622
0003f0 41 e4 f7 3d d5 63 8f 3e c3 28 86 bd f7 fb 90 3e
       0.12104083 0.28005853 -0.065507434 0.28317234

4.bias f4 [4]
000000 20 e3 d7 3e 33 e2 d0 3e a4 23 e0 3e 36 9b d5 3e
       0.4216547 0.40797576 0.43777192 0.4171998

exp_avg f4 [64, 37]
000000 6f 78 df b6 80 59 8a 35 77 ba 13 b6 7b 22 88 b6
       -6.659938e-06 1.0307849e-06 -2.2013244e-06 -4.05713e-06
000010 0f fe e1 b5 d2 a9 7f b6 1c 5a bc b6 92 de 8a 34
       -1.6837747e-06 -3.809681e-06 -5.6133267e-06 2.5866444e-07
000020 5c c1 36 b6 91 d0 94 b6 b1 ad 35 b6 a6 a2 64 b6
       -2.7232663e-06 -4.435024e-06 -2.7072203e-06 -3.4069321e-06
000030 64 b6 bb b5 03 cc 92 b6 b6 34 26 b6 d3 96 cf b6
       -1.3985668e-06 -4.374889e-06 -2.476661e-06 -6.186639e-06
000040 c1 11 e6 34 01 d0 0f b7 df e7 23 36 a8 69 f8 b6
       4.2853756e-07 -8.571894e-06 2.442386e-06 -7.403276e-06
000050 a0 70 72 b6 c7 3b 99 b6 c6 50 7f b6 d0 ac ce 33
       -3.6126366e-06 -4.5667143e-06 -3.8044977e-06 9.624057e-08
000060 47 25 91 b6 86 4d 96 b3 8e 59 26 b5 79 b2 b0 b6
       -4.3256764e-06 -6.999021e-08 -6.197014e-07 -5.2659857e-06
000070 ea 0a c7 b6 73 49 8c b6 6e 72 75 b6 2b 9e e5 b3
       -5.9319327e-06 -4.1808757e-06 -3.6574452e-06 -1.0692414e-07
000080 c2 98 84 b6 57 f9 8b b6 69 55 e1 33 f4 ef 0c b7
       -3.95169e-06 -4.17155e-06 1.0492915e-07 -8.400519e-06
000090 d6 06 c2 35 b0 5f 87 35 b5 6f aa 35 38 0a 11 37
       1.4456116e-06 1.0086133e-06 1.2698498e-06 8.645053e-06
0000a0 50 2d c7 b6 d0 0a ec 36 cd 2b 1e b7 01 92 be 36
       -5.935937e-06 7.034607e-06 -9.427732e-06 5.6794383e-06
0000b0 1a 3b a8 35 d0 11 fb 36 67 a5 70 36 a8 10 8c b7
       1.2534176e-06 7.4824566e-06 3.5859064e-06 -1.6697057e-05
0000c0 fc 91 d9 36 81 99 fd 36 15 39 00 37 f6 c0 fa 36
       6.484099e-06 7.5578578e-06 7.642685e-06 7.473044e-06
0000d0 f1 d3 67 37 af 2f 1a b7 28 60 3f 36 27 3b 27 b6
       1.3818019e-05 -9.1902175e-06 2.8517188e-06 -2.491937e-06
0000e0 aa 5d 9c b6 1d 67 47 b6 22 41 4c b5 41 f0 3d 36
       -4.660066e-06 -2.971333e-06 -7.60907e-07 2.830304e-06
0000f0 96 9e c5 36 a0 6c e0 36 3b 23 01 b7 a1 ed 88 36
       5.8895193e-06 6.688366e-06 -7.697202e-06 4.0807795e-06
000100 76 78 20 37 38 f4 80 b5 6e b6 2c 37 f2 f2 e6 35
       9.56479e-06 -9.60782e-07 1.0294474e-05 1.7207042e-06
000110 48 ce ba b6 e5 91 e6 b6 9b bf 83 37 8b 41 0e 36
       -5.5672463e-06 -6.8715185e-06 1.570564e-05 2.11978e-06
000120 22 d1 8a b7 77 5e 11 b8 23 2c 2d b6 31 ed 70 b6
       -1.6548267e-05 -3.465867e-05 -2.58047e-06 -3.590085e-06
000130 38 e4 c0 b5 61 97 09 b7 5e 06 2a b7 04 00 00 80
       -1.4371535e-06 -8.201082e-06 -1.0134272e-05 -6e-45
000140 46 d8 7f 36 0e ae 02 37 30 ef e5 b7 9d d8 8a 35
       3.8123849e-06 7.789129e-06 -2.7410308e-05 1.0344844e-06
000150 cb f3 bb b6 35 e5 eb b6 33 98 f8 35 8a c1 a8 b6
       -5.6014155e-06 -7.030229e-06 1.8521736e-06 -5.029321e-06
000160 43 0d 40 b7 ba 13 ba b7 f2 ce 8c 36 56 c5 d9 b4
       -1.14471795e-05 -2.2182114e-05 4.1964167e-06 -4.056298e-07
000170 a9 4f 2d 36 9d ea 22 b7 0b 23 56 b7 d7 d8 a6 b6
       2.5825377e-06 -9.710578e-06 -1.2763553e-05 -4.972429e-06
000180 4f 06 29 37 18 b1 08 b7 ac 25 44 b7 a2 c9 17 37
       1.0074654e-05 -8.1474645e-06 -1.16912815e-05 9.047248e-06
000190 3c 2b 74 36 b3 f7 b3 b7 8f 3e ec b6 bb b5 f7 b6
       3.6384e-06 -2.1453807e-05 -7.040631e-06 -7.38233e-06
0001a0 67 4c 94 b7 84 6c 9e 36 d1 a2 85 37 aa 8e 9d b7
       -1.7678552e-05 4.7214e-06 1.5930653e-05 -1.8782292e-05
0001b0 f8 3f de b5 b2 2d 37 36 00 83 22 b9 52 00 c3 37
       -1.6558906e-06 2.7295723e-06 -0.00015498325 2.324596e-05
0001c0 3c 37 9a 35 a4 40 d0 34 39 73 13 b4 a4 11 b9 36
       1.148997e-06 3.879005e-07 -1.373236e-07 5.5154833e-06
0001d0 af 52 1c 37 f3 b7 f5 35 af 77 0d b6 03 e8 82 37
       9.317576e-06 1.8307459e-06 -2.1080302e-06 1.5605247e-05
0001e0 a1 eb e9 36 f8 3c 8e b6 dd 91 44 36 bb d6 8c 36
       6.971372e-06 -4.2390275e-06 2.929118e-06 4.197323e-06
0001f0 38 85 b6 37 f5 c5 b7 35 07 7c aa 37 39 7d 9b 36
       2.1758126e-05 1.3692176e-06 2.0323334e-05 4.633938e-06
000200 37 13 86 36 02 89 90 b6 40 0d e1 36 f8 24 bb b6
       3.995748e-06 -4.3074842e-06 6.707065e-06 -5.577338e-06
000210 a2 e1 e2 34 43 6c c8 37 5c 3d c6 36 3c 55 88 36
       4.225995e-07 2.3892271e-05 5.908003e-06 4.0630384e-06
000220 26 72 05 37 e7 f2 32 b5 6b f6 9c 37 53 a0 b5 b5
       7.953995e-06 -6.6663637e-07 1.8711396e-05 -1.3532211e-06
000230 8a ae 3d 37 03 d8 2c 36 6d c4 09 36 55 63 fe b5
       1.1305916e-05 2.5755733e-06 2.0528926e-06 -1.8953384e-06
000240 8a d0 b7 37 37 54 98 36 e4 8d e0 b6 c0 67 5e 39
       2.1912409e-05 4.539757e-06 -6.6922385e-06 0.0002121022
000250 14 37 00 37 8e 05 85 b6 15 8c 4a 37 19 eb 20 b6
       7.642218e-06 -3.9643555e-06 1.2072754e-05 -2.3978703e-06
000260 18 3e 00 b5 fe 21 3a 36 c5 72 9a 36 67 e3 0b b7
       -4.7774074e-07 2.7735946e-06 4.6029186e-06 -8.337992e-06
000270 21 27 70 37 3c a8 71 35 25 a1 c4 b4 c2 56 49 36
       1.4314225e-05 9.002431e-07 -3.6625093e-07 3.0001834e-06
000280 0c bd ff 35 55 dd 13 37 ef 82 66 36 69 44 94 37
       1.9054e-06 8.813416e-06 3.4348884e-06 1.767483e-05
000290 fc dc b3 b5 8a 35 2f b6 30 46 c7 b4 bf 53 b5 b5
       -1.3400854e-06 -2.6108196e-06 -3.7117707e-07 -1.3509924e-06
0002a0 2e d9 33 b6 58 28 0c b6 49 d7 31 37 6b 5d fc 36
       -2.6799494e-06 -2.0885109e-06 1.0600147e-05 7.5210605e-06
0002b0 38 15 94 35 96 51 77 b7 5d ca a9 36 60 fa b1 37
       1.1033035e-06 -1.4741343e-05 5.0601507e-06 2.1216634e-05
0002c0 15 ea f3 35 e8 a8 bf 36 e5 81 a3 b6 40 fe fd b5
       1.8173038e-06 5.711907e-06 -4.8729003e-06 -1.8923965e-06
0002d0 9f d2 02 37 b9 b3 4e 37 da 45 67 32 21 cc 76 b5
       7.797643e-06 1.2320402e-05 1.3461852e-08 -9.193919e-07
0002e0 a2 b0 06 39 3f 19 6c b4 54 f7 27 36 4b 3c 67 b6
       0.00012845037 -2.1988397e-07 2.5028903e-06 -3.4456777e-06
0002f0 1b de d9 b3 2a f7 c0 35 4d 87 8c 35 3c a5 e9 35
       -1.0145251e-07 1.4377049e-06 1.047019e-06 1.7407942e-06
000300 c6 fc 4b b6 f5 dd 87 b5 1f ef ff 35 54 46 f6 b3
       -3.039649e-06 -1.0122882e-06 1.9068574e-06 -1.146806e-07
000310 d2 64 ba b5 a7 c6 ef 35 6b a8 cf b5 d0 99 35 b5
       -1.3887422e-06 1.7864703e-06 -1.5471718e-06 -6.765158e-07
000320 4e fd 87 35 9b 7f 9f 35 fd 71 65 b6 5e 7d 48 b3
       1.0132005e-06 1.1883561e-06 -3.419001e-06 -4.668015e-08
000330 36 14 b9 35 5c 6c f6 b5 f0 d6 96 35 57 7f 3f b6
       1.3789456e-06 -1.8359965e-06 1.1238426e-06 -2.853534e-06
000340 90 74 1a 36 62 f3 07 35 d9 97 07 36 36 6c 03 35
       2.3015637e-06 5.064559e-07 2.0204955e-06 4.895877e-07
000350 d2 f2 85 b6 17 d4 69 34 52 db 14 35 1b ef 14 b5
       -3.991977e-06 2.1776974e-07 5.545345e-07 -5.548224e-07
000360 a5 d4 8d 35 15 75 44 b6 14 e2 9b 35 57 69 42 35
       1.0567206e-06 -2.9274427e-06 1.1614197e-06 7.242392e-07
000370 e1 29 61 b7 19 38 a6 b7 4b df df 36 bc ae 51 34
       -1.3420796e-05 -1.9814865e-05 6.6719126e-06 1.952821e-07
000380 ce ed 85 b6 33 85 71 b6 22 05 f3 36 7b db 98 36
       -3.991393e-06 -3.598933e-06 7.242562e-06 4.555504e-06
000390 d0 a6 d1 b6 38 2a 62 b6 c4 9c 91 36 fa bd cb b6
       -6.248105e-06 -3.3701199e-06 4.3395867e-06 -6.0719876e-06
0003a0 30 b3 4d 37 80 62 1b 36 83 ea a8 b6 67 38 2c b7
       1.22606725e-05 2.3154134e-06 -5.034091e-06 -1.0265131e-05
0003b0 3d 37 23 37 da 2f 9d b6 9d e5 80 b6 18 09 cb 36
       9.728418e-06 -4.6845353e-06 -3.8414278e-06 6.05093e-06
0003c0 d9 22 eb 35 ae a1 b4 b6 ee e8 ef 35 aa 04 c3 b5
       1.7519006e-06 -5.38324e-06 1.7874679e-06 -1.452999e-06
0003d0 5c a7 47 37 bc 65 59 b7 37 18 e6 35 7b 90 20 37
       1.1900291e-05 -1.2957895e-05 1.7143383e-06 9.570383e-06
0003e0 5e c9 88 34 68 e8 58 34 3e 5c 34 b7 2d e2 54 36
       2.5478488e-07 2.0201117e-07 -1.0750313e-05 3.1722113e-06
0003f0 d1 d1 e9 36 0a ab d1 b6 a6 e6 09 37 de 1b 22 b7
       6.968367e-06 -6.248597e-06 8.219538e-06 -9.662441e-06

exp_avg_sq f4 [64, 37]
000000 b2 e5 05 31 d7 3d ff 2f e8 7e aa 30 dd 74 27 30
       1.9484614e-09 4.642817e-10 1.2405197e-09 6.092032e-10
000010 7c 2e 48 30 12 81 6e 30 e1 c1 f4 30 4b 62 b1 30
       7.2825634e-10 8.6767316e-10 1.780844e-09 1.2906382e-09
000020 eb cc 08 30 6b 7a b2 30 22 4c 69 30 d4 4b cd 30
       4.976772e-10 1.2985998e-09 8.48731e-10 1.4937265e-09
000030 42 71 d7 30 56 07 0f 30 41 c2 d1 2f 40 ca 28 31
       1.5675499e-09 5.203352e-10 3.8154904e-10 2.4562183e-09
000040 78 ec d1 2f 22 78 92 30 ba 1d 3c 30 99 12 ee 2f
       3.81849e-10 1.0657042e-09 6.8436246e-10 4.3305162e-10
000050 ba 4c fe 2f 19 70 20 31 08 c0 b2 30 68 c2 fc 2f
       4.6256848e-10 2.3346785e-09 1.3005783e-09 4.5976667e-10
000060 7a 05 4b 30 1f d0 e1 30 e3 a5 47 30 fa 72 b8 30
       7.385875e-10 1.6430056e-09 7.263152e-10 1.342044e-09
000070 7f 4e 46 30 61 54 0f 30 9d ea 38 30 08 84 f6 30
       7.214353e-10 5.2143007e-10 6.7272216e-10 1.7936381e-09
000080 a8 74 b4 30 35 b3 4a 30 49 e4 57 30 e6 86 81 31
       1.3129879e-09 7.374184e-10 7.8540957e-10 3.7697303e-09
000090 56 1b 0a 34 17 ed 2a 32 a6 e3 3a 32 f2 1c 5c 32
       1.2862196e-07 9.94921e-09 1.0878386e-08 1.2812267e-08
0000a0 47 6c 9c 31 49 34 13 32 9d 27 77 32 7b 79 21 32
       4.5525073e-09 8.568414e-09 1.4386299e-08 9.399055e-09
0000b0 14 d2 21 32 b3 e9 e1 31 10 fc 1d 32 64 e0 a4 32
       9.4192e-09 6.5749304e-09 9.195915e-09 1.9194154e-08
0000c0 03 8c 20 32 0d a2 06 32 3e 7c 91 31 e8 37 dd 31
       9.345061e-09 7.836673e-09 4.23418e-09 6.4383023e-09
0000d0 0a 1a 5c 32 ca dc 13 32 4c 2d 43 32 52 94 e2 31
       1.2811606e-08 8.606728e-09 1.1360793e-08 6.5943278e-09
0000e0 5f d8 04 32 87 f9 ec 32 bb a3 95 31 52 2c a6 31
       7.732608e-09 2.7587488e-08 4.3550847e-09 4.8362745e-09
0000f0 91 c0 72 31 0f 8b 61 31 69 73 6a 32 8e 4f 18 32
       3.5325096e-09 3.2820855e-09 1.3646834e-08 8.865653e-09
000100 17 44 3b 32 b7 90 a6 31 85 6d 1b 32 76 95 8b 32
       1.0900314e-08 4.847688e-09 9.047089e-09 1.6249697e-08
000110 9a e8 0a 32 f3 80 1b 32 2f ac c5 31 25 9f 03 32
       8.085545e-09 9.051507e-09 5.7530296e-09 7.661389e-09
000120 47 a4 00 33 db 1c 0a 36 e5 64 8f 31 6d 20 9a 31
       2.995173e-08 2.0580399e-06 4.173318e-09 4.4856763e-09
000130 35 02 03 32 0f d6 18 31 f6 df 53 31 3f e5 a3 25
       7.625705e-09 2.224059e-09 3.0831848e-09 2.8431336e-16
000140 00 fa 8d 30 51 bf 41 32 61 32 ec 31 6f e6 17 2f
       1.0330155e-09 1.1277579e-08 6.8742314e-09 1.3815236e-10
000150 2f 02 c2 31 55 b9 80 31 53 3a cf 31 50 f5 52 31
       5.6463914e-09 3.74636e-09 6.0311236e-09 3.0698466e-09
000160 70 4b 54 31 95 9b 89 31 1a 24 9d 31 a2 4a 11 32
       3.0892942e-09 4.0049124e-09 4.5734057e-09 8.45708e-09
000170 dd 24 dd 30 ad 1d 5f 31 1e 0d 6e 31 3a 29 90 31
       1.6090344e-09 3.246764e-09 3.4641015e-09 4.1956385e-09
000180 e4 2c 0e 32 76 a2 32 31 37 d6 3c 31 05 83 5b 31
       8.275695e-09 2.5994757e-09 2.7479368e-09 3.194317e-09
000190 c7 e6 30 31 99 fa 2f 32 1d 35 4c 31 88 21 03 31
       2.5742553e-09 1.024332e-08 2.9716098e-09 1.908207e-09
0001a0 1d ea 8f 31 76 93 0a 31 bd 2a 2b 32 4d f5 0b 31
       4.1884634e-09 2.0165465e-09 9.963228e-09 2.03666e-09
0001b0 68 aa 12 31 72 67 8a 32 79 fd 73 35 51 94 1b 32
       2.134266e-09 1.6112356e-08 9.0893406e-07 9.055911e-09
0001c0 b1 7f 3f 2e 70 53 cf 2f de 45 fd 2f 8c a9 0b 30
       4.3541785e-11 3.7712367e-10 4.6070076e-10 5.0808846e-10
0001d0 d7 70 38 31 c0 fd 25 31 8a 19 4b 31 ac 97 f8 30
       2.6839666e-09 2.41549e-09 2.9554905e-09 1.8087483e-09
0001e0 e4 a5 48 31 fb 6a d3 30 65 36 43 31 96 78 87 31
       2.9198128e-09 1.5382676e-09 2.8407154e-09 3.942726e-09
0001f0 8d 59 cc 30 31 af ee 30 c0 bc 9c 31 c2 93 c5 30
       1.4868405e-09 1.7366572e-09 4.561656e-09 1.4375632e-09
000200 b8 36 d0 30 d1 7c 28 31 72 a3 c3 30 b1 10 00 31
       1.5149544e-09 2.4518167e-09 1.4234571e-09 1.863594e-09
000210 69 60 35 31 fb 51 31 31 2c ec 2f 31 ca de f1 30
       2.639377e-09 2.580349e-09 2.56001e-09 1.7598378e-09
000220 13 e0 86 31 4c 60 d3 30 01 31 ec 30 59 5e 4a 31
       3.9253876e-09 1.537964e-09 1.7185188e-09 2.94485e-09
000230 65 b1 f1 30 b9 15 32 31 b2 c2 11 31 de 56 1e 31
       1.7585476e-09 2.5914757e-09 2.1210949e-09 2.3041404e-09
000240 7b 2c 31 31 93 21 04 31 94 8d 3b 32 f5 70 d9 34
       2.5782174e-09 1.9227613e-09 1.0917024e-08 4.0501587e-07
000250 1a 79 c5 31 62 4d 8b 30 c2 62 03 31 6a 4f 50 30
       5.7472223e-09 1.0135575e-09 1.9119146e-09 7.5782813e-10
000260 47 56 d6 30 83 50 e7 30 b4 6b 69 31 e2 b9 24 31
       1.5595071e-09 1.6830345e-09 3.3967185e-09 2.3970803e-09
000270 4e 66 03 31 0c f4 1e 31 86 31 11 31 30 61 68 31
       1.9121162e-09 2.313075e-09 2.1128428e-09 3.3815688e-09
000280 20 90 1a 31 c1 e3 d7 30 c7 ed f3 30 cd d3 14 32
       2.2491875e-09 1.570804e-09 1.7748157e-09 8.662892e-09
000290 69 84 31 2f 5a 11 9b 2f 9f 36 14 30 99 55 09 30
       1.6145098e-10 2.8206665e-10 5.391971e-10 4.996195e-10
0002a0 3c 3b 17 31 5c 40 74 31 52 94 10 31 83 d9 d7 30
       2.2007063e-09 3.5543257e-09 2.1039068e-09 1.5705129e-09
0002b0 14 c2 e2 30 e8 22 8f 31 b6 db 0e 31 96 85 1e 31
       1.6498825e-09 4.165816e-09 2.078861e-09 2.306796e-09
0002c0 16 4b 88 30 bb 81 f5 30 3d 0f 04 31 2b a4 61 31
       9.916643e-10 1.7862968e-09 1.921719e-09 3.2835128e-09
0002d0 3f 77 3a 31 fd 89 d5 30 c5 25 ec 30 f7 73 da 31
       2.7134346e-09 1.5537008e-09 1.7181995e-09 6.3578187e-09
0002e0 4e bd 13 35 4e 99 9d 2f 1a 12 87 2f 3f d4 71 30
       5.503724e-07 2.8667063e-10 2.456922e-10 8.797691e-10
0002f0 f0 6c 17 2f da 07 5c 2f 49 49 41 2f f6 8e 16 2f
       1.3772072e-10 2.0011673e-10 1.7579284e-10 1.369321e-10
000300 cf 14 97 30 88 7e e9 2e d4 90 ff 2e 01 fe 18 30
       1.099261e-09 1.061809e-10 1.1621784e-10 5.565824e-10
000310 14 75 6b 2f 3f 9f 0a 30 1f 31 96 2f 3b b3 2a 2f
       2.141472e-10 5.043041e-10 2.7319744e-10 1.5525085e-10
000320 f0 cc 59 2f 26 9d 89 2f 4b d9 87 30 82 a6 00 2f
       1.9808843e-10 2.5031816e-10 9.884301e-10 1.1700688e-10
000330 87 d9 2e 2f d2 f8 2c 2f 8c f8 00 30 14 8f 46 30
       1.5902489e-10 1.5731708e-10 4.6919335e-10 7.2235307e-10
000340 b1 9b 53 2f b0 03 52 2f be a7 4f 2f f4 ed 15 2f
       1.9245651e-10 1.9100699e-10 1.8886134e-10 1.3636009e-10
000350 65 2c 98 30 38 84 fd 2e 5a 66 ef 2e f4 0e 46 2f
       1.1072073e-09 1.1528595e-10 1.0886643e-10 1.8013308e-10
000360 b9 ad 01 2f e4 d4 99 30 b0 ae 07 2f 2e cf dd 2e
       1.17942e-10 1.1192722e-09 1.234024e-10 1.0086719e-10
000370 81 62 d9 30 b9 6e 67 33 1f ba 73 31 9c 5e 31 31
       1.5816825e-09 5.388458e-08 3.5466952e-09 2.581067e-09
000380 30 bd 59 31 2c 9b d3 30 4c f1 2f 31 a0 fb f3 2f
       3.1685197e-09 1.5396373e-09 2.5603013e-09 4.4380233e-10
000390 8c 51 b1 2f a9 40 c6 31 eb 6c 9b 31 27 28 07 31
       3.2254055e-10 5.7699094e-09 4.5234763e-09 1.966791e-09
0003a0 98 ac 24 31 ab d7 8e 31 e5 32 29 31 76 84 d7 30
       2.396325e-09 4.1572625e-09 2.4621667e-09 1.5680957e-09
0003b0 5d 27 18 31 e5 c0 35 31 d4 2b 96 30 4b ee 6f 31
       2.2141287e-09 2.6448614e-09 1.0926393e-09 3.4914531e-09
0003c0 7f 54 80 31 6d aa 01 31 de 9f 4c 31 a5 6e fa 30
       3.7348964e-09 1.8868846e-09 2.977678e-09 1.8221341e-09
0003d0 2f 08 43 31 a3 59 55 31 6c b5 0c 31 f6 67 71 31
       2.8380887e-09 3.1046532e-09 2.0475808e-09 3.512921e-09
0003e0 41 15 06 30 77 19 be 30 21 39 bb 31 b9 4c c5 30
       4.877912e-10 1.3831557e-09 5.448911e-09 1.4355442e-09
0003f0 9f 23 58 31 d8 70 b9 30 e0 57 62 31 0b d0 46 31
       3.1452385e-09 1.3492594e-09 3.293728e-09 2.893105e-09

exp_avg f4 [64]
000000 e7 70 47 b7 09 5b a7 36 21 9d 84 b7 e1 bd ce 37
       -1.1887611e-05 4.9875857e-06 -1.5808795e-05 2.4645533e-05
000010 9c 05 60 37 f8 aa a9 b5 5a 1d 42 b5 1a c6 2c b7
       1.33527465e-05 -1.264124e-06 -7.2313344e-07 -1.0298123e-05
000020 04 00 00 00 ab 8b b0 37 d9 05 9b b7 0e cf 4e 37
       6e-45 2.1045873e-05 -1.8480163e-05 1.23267655e-05
000030 11 32 a9 34 b6 a3 82 37 df 22 75 36 73 de 6d b6
       3.151513e-07 1.5573441e-05 3.6528143e-06 -3.5445235e-06
000040 89 df d6 36 24 cb 80 38 98 e2 30 37 58 72 ea 36
       6.40372e-06 6.1413535e-05 1.0543175e-05 6.987055e-06
000050 04 00 00 00 eb df ea 37 89 c7 9e b7 8e 41 59 b8
       6e-45 2.7999244e-05 -1.8927984e-05 -5.1797884e-05
000060 fa 00 61 38 92 ca 68 37 05 82 4c 37 e8 fc d0 35
       5.364509e-05 1.3875442e-05 1.218962e-05 1.5570813e-06
000070 7b 71 e3 35 4d 71 cc b5 25 41 19 b7 ca f0 be 37
       1.6945845e-06 -1.5232159e-06 -9.134678e-06 2.2761891e-05
000080 1d c2 d2 b7 da 92 63 37 04 00 00 00 06 97 0e b6
       -2.5124342e-05 1.3564446e-05 6e-45 -2.1247556e-06
000090 b2 b4 82 b7 3c 17 cd b6 be 53 26 b8 a7 4d a1 35
       -1.558135e-05 -6.112181e-06 -3.9655475e-05 1.2018035e-06
0000a0 30 3d df 36 c2 d0 2b 37 0d 4b 0a 36 48 c4 5b 36
       6.653041e-06 1.02409995e-05 2.0607288e-06 3.2747794e-06
0000b0 c6 01 2b b6 a9 5c f9 b5 ba 25 ff b7 76 fe 32 37
       -2.5482018e-06 -1.8578913e-06 -3.0415937e-05 1.0668873e-05
0000c0 69 1c 6a 32 69 73 70 38 95 23 f2 36 80 02 88 b8
       1.3627052e-08 5.7327943e-05 7.2163043e-06 -6.485451e-05
0000d0 72 0b b0 37 95 49 8f 37 4d 9e db 37 8b fc 42 b6
       2.0986165e-05 1.7081193e-05 2.6180549e-05 -2.9055252e-06
0000e0 b6 fd 59 34 de 8f 39 b6 09 f6 0d 36 b7 f8 77 37
       2.0302e-07 -2.765089e-06 2.1153849e-06 1.4780256e-05
0000f0 71 fe 97 37 df d6 f0 37 ac 0f 8e 36 ac e0 68 34
       1.8119086e-05 2.8710287e-05 4.233754e-06 2.1688419e-07

exp_avg_sq f4 [64]
000000 99 05 9c 31 b9 10 30 33 16 06 a1 32 4c b8 2d 32
       4.540834e-09 4.0993402e-08 1.8745634e-08 1.011183e-08
000010 2b fc 28 32 c6 60 d1 30 a3 5f 3e 32 a8 c8 1b 32
       9.836223e-09 1.5234256e-09 1.1081201e-08 9.067811e-09
000020 06 22 12 2a 93 1c c5 31 88 82 2e 33 62 01 35 31
       1.2979209e-13 5.736703e-09 4.063125e-08 2.6339753e-09
000030 6a d5 1e 2f 13 cd b8 33 42 d5 8c 31 36 fb 47 32
       1.4445836e-10 8.6054705e-08 4.098781e-09 1.1640443e-08
000040 8b c1 0d 31 e8 37 22 34 af 1f 55 32 5b d5 aa 31
       2.0628217e-09 1.5107764e-07 1.2405436e-08 4.971907e-09
000050 26 7a 8b 15 2b 14 8b 33 ff a4 13 33 f4 3d d4 34
       5.633437e-26 6.4763604e-08 3.4376168e-08 3.9533154e-07
000060 20 81 20 34 47 eb c2 32 8b ed b7 32 b1 7d 87 2f
       1.4948137e-07 2.2691564e-08 2.1412026e-08 2.4645666e-10
000070 4b d2 1f 2f 97 fe 28 32 e3 ca d6 32 e8 0c cf 33
       1.4535677e-10 9.836774e-09 2.5005141e-08 9.641536e-08
000080 28 60 9f 33 44 03 e7 31 fc fb 09 26 40 79 23 31
       7.421505e-08 6.723356e-09 4.7872926e-16 2.3788544e-09
000090 86 ba 20 32 62 0c 9e 31 90 fd ab 33 4f 42 27 31
       9.355636e-09 4.599813e-09 8.008931e-08 2.433939e-09
0000a0 32 8d 69 31 0e 26 63 34 c2 0e 1d 32 ed e1 26 31
       3.3986223e-09 2.1154867e-07 9.141958e-09 2.4284603e-09
0000b0 12 a0 a8 31 ef 52 df 30 90 c4 ed 34 db 87 3e 33
       4.9076414e-09 1.6248957e-09 4.4287708e-07 4.4361382e-08
0000c0 a9 b9 b9 30 54 4f 52 33 9d 71 51 33 35 6a 08 35
       1.3513289e-09 4.8966584e-08 4.8764935e-08 5.08185e-07
0000d0 99 78 a4 32 1e b7 bd 31 19 d1 cb 34 95 e4 0d 32
       1.9146954e-08 5.521442e-09 3.7963835e-07 8.259254e-09
0000e0 cc db 02 31 ba 89 6c 31 31 3a de 31 24 70 ad 33
       1.904243e-09 3.4420808e-09 6.467666e-09 8.0763385e-08
0000f0 5b 56 53 33 a0 0d cf 31 dc 35 31 31 0c 65 fc 30
       4.9205806e-08 6.026042e-09 2.5787505e-09 1.8364132e-09

exp_avg f4 [64, 64]
000000 04 00 00 00 04 00 00 00 04 00 00 00 04 00 00 00
       6e-45 6e-45 6e-45 6e-45
000010 04 00 00 00 04 00 00 00 04 00 00 00 04 00 00 00
       6e-45 6e-45 6e-45 6e-45
000020 04 00 00 80 04 00 00 00 04 00 00 00 04 00 00 80
       -6e-45 6e-45 6e-45 -6e-45
000030 04 00 00 00 04 00 00 00 04 00 00 00 04 00 00 00
       6e-45 6e-45 6e-45 6e-45
000040 04 00 00 00 04 00 00 00 04 00 00 00 04 00 00 00
       6e-45 6e-45 6e-45 6e-45
000050 04 00 00 00 04 00 00 00 04 00 00 80 04 00 00 00
       6e-45 6e-45 -6e-45 6e-45
000060 04 00 00 80 04 00 00 00 04 00 00 00 04 00 00 00
       -6e-45 6e-45 6e-45 6e-45
000070 04 00 00 00 04 00 00 00 04 00 00 00 04 00 00 00
       6e-45 6e-45 6e-45 6e-45
000080 04 00 00 00 04 00 00 00 04 00 00 00 04 00 00 00
       6e-45 6e-45 6e-45 6e-45
000090 04 00 00 00 04 00 00 00 04 00 00 00 04 00 00 00
       6e-45 6e-45 6e-45 6e-45
0000a0 04 00 00 80 04 00 00 00 04 00 00 00 04 00 00 00
       -6e-45 6e-45 6e-45 6e-45
0000b0 04 00 00 00 04 00 00 00 04 00 00 00 04 00 00 00
       6e-45 6e-45 6e-45 6e-45
0000c0 04 00 00 00 04 00 00 00 04 00 00 00 04 00 00 80
       6e-45 6e-45 6e-45 -6e-45
0000d0 04 00 00 00 04 00 00 00 04 00 00 00 04 00 00 00
       6e-45 6e-45 6e-45 6e-45
0000e0 04 00 00 00 04 00 00 00 04 00 00 00 04 00 00 00
       6e-45 6e-45 6e-45 6e-45
0000f0 04 00 00 00 04 00 00 00 04 00 00 00 04 00 00 80
       6e-45 6e-45 6e-45 -6e-45
000100 04 00 00 00 04 00 00 00 04 00 00 00 04 00 00 00
       6e-45 6e-45 6e-45 6e-45
000110 04 00 00 00 04 00 00 00 04 00 00 00 04 00 00 00
       6e-45 6e-45 6e-45 6e-45
000120 04 00 00 00 04 00 00 00 04 00 00 00 04 00 00 00
       6e-45 6e-45 6e-45 6e-45
000130 04 00 00 00 04 00 00 00 04 00 00 00 04 00 00 00
       6e-45 6e-45 6e-45 6e-45
000140 04 00 00 00 04 00 00 00 04 00 00 00 04 00 00 80
       6e-45 6e-45 6e-45 -6e-45
000150 04 00 00 00 04 00 00 00 04 00 00 00 04 00 00 00
       6e-45 6e-45 6e-45 6e-45
000160 04 00 00 80 04 00 00 00 04 00 00 80 04 00 00 80
       -6e-45 6e-45 -6e-45 -6e-45
000170 04 00 00 00 04 00 00 00 04 00 00 00 04 00 00 00
       6e-45 6e-45 6e-45 6e-45
000180 04 00 00 00 04 00 00 00 04 00 00 00 04 00 00 00
       6e-45 6e-45 6e-45 6e-45
000190 04 00 00 00 04 00 00 00 04 00 00 00 04 00 00 00
       6e-45 6e-45 6e-45 6e-45
0001a0 04 00 00 00 04 00 00 00 04 00 00 00 04 00 00 00
       6e-45 6e-45 6e-45 6e-45
0001b0 04 00 00 00 04 00 00 00 04 00 00 00 04 00 00 00
       6e-45 6e-45 6e-45 6e-45
0001c0 04 00 00 00 04 00 00 00 04 00 00 00 04 00 00 00
       6e-45 6e-45 6e-45 6e-45
0001d0 04 00 00 00 04 00 00 00 04 00 00 00 04 00 00 00
       6e-45 6e-45 6e-45 6e-45
0001e0 04 00 00 00 04 00 00 00 04 00 00 00 04 00 00 00
       6e-45 6e-45 6e-45 6e-45
0001f0 04 00 00 00 04 00 00 00 04 00 00 00 04 00 00 00
       6e-45 6e-45 6e-45 6e-45
000200 04 00 00 00 04 00 00 00 04 00 00 00 04 00 00 00
       6e-45 6e-45 6e-45 6e-45
000210 04 00 00 00 04 00 00 00 04 00 00 00 04 00 00 00
       6e-45 6e-45 6e-45 6e-45
000220 04 00 00 00 04 00 00 00 04 00 00 00 04 00 00 00
       6e-45 6e-45 6e-45 6e-45
000230 04 00 00 00 04 00 00 00 04 00 00 00 04 00 00 00
       6e-45 6e-45 6e-45 6e-45
000240 04 00 00 00 04 00 00 80 04 00 00 00 04 00 00 00
       6e-45 -6e-45 6e-45 6e-45
000250 04 00 00 00 04 00 00 00 04 00 00 00 04 00 00 00
       6e-45 6e-45 6e-45 6e-45
000260 04 00 00 00 04 00 00 00 04 00 00 80 04 00 00 00
       6e-45 6e-45 -6e-45 6e-45
000270 04 00 00 00 04 00 00 00 04 00 00 00 04 00 00 80
       6e-45 6e-45 6e-45 -6e-45
000280 04 00 00 00 04 00 00 00 04 00 00 00 04 00 00 00
       6e-45 6e-45 6e-45 6e-45
000290 04 00 00 00 04 00 00 00 04 00 00 00 04 00 00 00
       6e-45 6e-45 6e-45 6e-45
0002a0 04 00 00 00 04 00 00 00 04 00 00 00 04 00 00 00
       6e-45 6e-45 6e-45 6e-45
0002b0 04 00 00 00 04 00 00 00 04 00 00 00 04 00 00 00
       6e-45 6e-45 6e-45 6e-45
0002c0 04 00 00 00 04 00 00 00 04 00 00 00 04 00 00 00
       6e-45 6e-45 6e-45 6e-45
0002d0 04 00 00 00 04 00 00 00 04 00 00 00 04 00 00 00
       6e-45 6e-45 6e-45 6e-45
0002e0 04 00 00 00 04 00 00 00 04 00 00 00 04 00 00 80
       6e-45 6e-45 6e-45 -6e-45
0002f0 04 00 00 00 04 00 00 00 04 00 00 00 04 00 00 00
       6e-45 6e-45 6e-45 6e-45
000300 04 00 00 80 04 00 00 00 04 00 00 00 04 00 00 00
       -6e-45 6e-45 6e-45 6e-45
000310 04 00 00 00 04 00 00 00 04 00 00 00 04 00 00 00
       6e-45 6e-45 6e-45 6e-45
000320 04 00 00 00 04 00 00 00 04 00 00 80 04 00 00 00
       6e-45 6e-45 -6e-45 6e-45
000330 04 00 00 00 04 00 00 00 04 00 00 00 04 00 00 00
       6e-45 6e-45 6e-45 6e-45
000340 04 00 00 00 04 00 00 00 04 00 00 00 04 00 00 00
       6e-45 6e-45 6e-45 6e-45
000350 04 00 00 80 04 00 00 00 04 00 00 00 04 00 00 00
       -6e-45 6e-45 6e-45 6e-45
000360 04 00 00 00 04 00 00 00 04 00 00 00 04 00 00 00
       6e-45 6e-45 6e-45 6e-45
000370 04 00 00 00 04 00 00 00 04 00 00 00 04 00 00 00
       6e-45 6e-45 6e-45 6e-45
000380 04 00 00 00 04 00 00 00 04 00 00 00 04 00 00 00
       6e-45 6e-45 6e-45 6e-45
000390 04 00 00 00 04 00 00 00 04 00 00 00 04 00 00 00
       6e-45 6e-45 6e-45 6e-45
0003a0 04 00 00 00 04 00 00 00 04 00 00 00 04 00 00 00
       6e-45 6e-45 6e-45 6e-45
0003b0 04 00 00 00 04 00 00 80 04 00 00 00 04 00 00 00
       6e-45 -6e-45 6e-45 6e-45
0003c0 04 00 00 00 04 00 00 00 04 00 00 00 04 00 00 00
       6e-45 6e-45 6e-45 6e-45
0003d0 04 00 00 00 04 00 00 00 04 00 00 00 04 00 00 00
       6e-45 6e-45 6e-45 6e-45
0003e0 04 00 00 00 04 00 00 80 04 00 00 00 04 00 00 00
       6e-45 -6e-45 6e-45 6e-45
0003f0 04 00 00 00 04 00 00 00 04 00 00 00 04 00 00 00
       6e-45 6e-45 6e-45 6e-45
